{"class_name": "Model", "config": {"name": "model_1", "layers": [{"name": "encoder_inputs", "class_name": "InputLayer", "config": {"batch_input_shape": [null, null], "dtype": "float32", "sparse": false, "name": "encoder_inputs"}, "inbound_nodes": []}, {"name": "encoder_embedding", "class_name": "Embedding", "config": {"name": "encoder_embedding", "trainable": true, "batch_input_shape": [null, 40], "dtype": "int32", "input_dim": 802, "output_dim": 256, "embeddings_initializer": {"class_name": "RandomUniform", "config": {"minval": -0.05, "maxval": 0.05, "seed": null}}, "embeddings_regularizer": null, "activity_regularizer": null, "embeddings_constraint": null, "mask_zero": false, "input_length": 40}, "inbound_nodes": [[["encoder_inputs", 0, 0, {}]]]}, {"name": "decoder_inputs", "class_name": "InputLayer", "config": {"batch_input_shape": [null, null, 801], "dtype": "float32", "sparse": false, "name": "decoder_inputs"}, "inbound_nodes": []}, {"name": "encoder_lstm", "class_name": "LSTM", "config": {"name": "encoder_lstm", "trainable": true, "return_sequences": false, "return_state": true, "go_backwards": false, "stateful": false, "unroll": false, "implementation": 0, "units": 256, "activation": "tanh", "recurrent_activation": "hard_sigmoid", "use_bias": true, "kernel_initializer": {"class_name": "VarianceScaling", "config": {"scale": 1.0, "mode": "fan_avg", "distribution": "uniform", "seed": null}}, "recurrent_initializer": {"class_name": "Orthogonal", "config": {"gain": 1.0, "seed": null}}, "bias_initializer": {"class_name": "Zeros", "config": {}}, "unit_forget_bias": true, "kernel_regularizer": null, "recurrent_regularizer": null, "bias_regularizer": null, "activity_regularizer": null, "kernel_constraint": null, "recurrent_constraint": null, "bias_constraint": null, "dropout": 0.0, "recurrent_dropout": 0.0}, "inbound_nodes": [[["encoder_embedding", 0, 0, {}]]]}, {"name": "decoder_lstm", "class_name": "LSTM", "config": {"name": "decoder_lstm", "trainable": true, "return_sequences": true, "return_state": true, "go_backwards": false, "stateful": false, "unroll": false, "implementation": 0, "units": 256, "activation": "tanh", "recurrent_activation": "hard_sigmoid", "use_bias": true, "kernel_initializer": {"class_name": "VarianceScaling", "config": {"scale": 1.0, "mode": "fan_avg", "distribution": "uniform", "seed": null}}, "recurrent_initializer": {"class_name": "Orthogonal", "config": {"gain": 1.0, "seed": null}}, "bias_initializer": {"class_name": "Zeros", "config": {}}, "unit_forget_bias": true, "kernel_regularizer": null, "recurrent_regularizer": null, "bias_regularizer": null, "activity_regularizer": null, "kernel_constraint": null, "recurrent_constraint": null, "bias_constraint": null, "dropout": 0.0, "recurrent_dropout": 0.0}, "inbound_nodes": [[["decoder_inputs", 0, 0, {}], ["encoder_lstm", 0, 1, {}], ["encoder_lstm", 0, 2, {}]]]}, {"name": "decoder_dense", "class_name": "Dense", "config": {"name": "decoder_dense", "trainable": true, "units": 801, "activation": "softmax", "use_bias": true, "kernel_initializer": {"class_name": "VarianceScaling", "config": {"scale": 1.0, "mode": "fan_avg", "distribution": "uniform", "seed": null}}, "bias_initializer": {"class_name": "Zeros", "config": {}}, "kernel_regularizer": null, "bias_regularizer": null, "activity_regularizer": null, "kernel_constraint": null, "bias_constraint": null}, "inbound_nodes": [[["decoder_lstm", 0, 0, {}]]]}], "input_layers": [["encoder_inputs", 0, 0], ["decoder_inputs", 0, 0]], "output_layers": [["decoder_dense", 0, 0]]}, "keras_version": "2.0.5", "backend": "tensorflow"}